…
2019-01-04 11:38:46.998239: I tensorflow/core/common_runtime/gpu/gpu_device.cc:1105] Found device 0 with properties: 
name: Tesla V100-PCIE-16GB major: 7 minor: 0 memoryClockRate(GHz): 1.38
pciBusID: 0000:af:00.0
totalMemory: 15.75GiB freeMemory: 15.34GiB
2019-01-04 11:38:46.998284: I tensorflow/core/common_runtime/gpu/gpu_device.cc:1195] Creating TensorFlow device (/device:GPU:0) -> (device: 0, name: Tesla V100-PCIE-16GB, pci bus id: 0000:af:00.0, compute capability: 7.0)
_________________________________________________________________
Layer (type)                 Output Shape              Param #   
=================================================================
dropout_1 (Dropout)          (None, 96)                0         
_________________________________________________________________
dense_1 (Dense)              (None, 25)                2425      
_________________________________________________________________
dropout_2 (Dropout)          (None, 25)                0         
_________________________________________________________________
dense_2 (Dense)              (None, 12)                312       
_________________________________________________________________
dropout_3 (Dropout)          (None, 12)                0         
_________________________________________________________________
dense_3 (Dense)              (None, 1)                 13        
=================================================================
Total params: 2,750
Trainable params: 2,750
Non-trainable params: 0
_________________________________________________________________
None
Train on 2918 samples, validate on 625 samples
Epoch 1/70

  50/2918 [..............................] - ETA: 1:06 - loss: 13.7038 - mean_squared_error: 13.7038
1150/2918 [==========>...................] - ETA: 1s - loss: 5.6588 - mean_squared_error: 5.6588    
…
2019-01-04 11:39:00.829947: I tensorflow/core/common_runtime/gpu/gpu_device.cc:1105] Found device 0 with properties: 
name: Tesla V100-PCIE-16GB major: 7 minor: 0 memoryClockRate(GHz): 1.38
pciBusID: 0000:af:00.0
totalMemory: 15.75GiB freeMemory: 15.34GiB
2019-01-04 11:39:00.829982: I tensorflow/core/common_runtime/gpu/gpu_device.cc:1195] Creating TensorFlow device (/device:GPU:0) -> (device: 0, name: Tesla V100-PCIE-16GB, pci bus id: 0000:af:00.0, compute capability: 7.0)
_________________________________________________________________
Layer (type)                 Output Shape              Param #   
=================================================================
dropout_1 (Dropout)          (None, 96)                0         
_________________________________________________________________
dense_1 (Dense)              (None, 25)                2425      
_________________________________________________________________
dropout_2 (Dropout)          (None, 25)                0         
_________________________________________________________________
dense_2 (Dense)              (None, 12)                312       
_________________________________________________________________
dropout_3 (Dropout)          (None, 12)                0         
_________________________________________________________________
dense_3 (Dense)              (None, 6)                 78        
_________________________________________________________________
dropout_4 (Dropout)          (None, 6)                 0         
_________________________________________________________________
dense_4 (Dense)              (None, 1)                 7         
=================================================================
Total params: 2,822
Trainable params: 2,822
Non-trainable params: 0
_________________________________________________________________
None
Train on 2918 samples, validate on 625 samples
Epoch 1/70

  50/2918 [..............................] - ETA: 1:08 - loss: 17.6612 - mean_squared_error: 17.6612
1050/2918 [=========>....................] - ETA: 2s - loss: 14.2588 - mean_squared_error: 14.2588  
…
2019-01-04 11:39:16.209865: I tensorflow/core/common_runtime/gpu/gpu_device.cc:1105] Found device 0 with properties: 
name: Tesla V100-PCIE-16GB major: 7 minor: 0 memoryClockRate(GHz): 1.38
pciBusID: 0000:af:00.0
totalMemory: 15.75GiB freeMemory: 15.34GiB
2019-01-04 11:39:16.209904: I tensorflow/core/common_runtime/gpu/gpu_device.cc:1195] Creating TensorFlow device (/device:GPU:0) -> (device: 0, name: Tesla V100-PCIE-16GB, pci bus id: 0000:af:00.0, compute capability: 7.0)
_________________________________________________________________
Layer (type)                 Output Shape              Param #   
=================================================================
dropout_1 (Dropout)          (None, 96)                0         
_________________________________________________________________
dense_1 (Dense)              (None, 25)                2425      
_________________________________________________________________
dropout_2 (Dropout)          (None, 25)                0         
_________________________________________________________________
dense_2 (Dense)              (None, 12)                312       
_________________________________________________________________
dropout_3 (Dropout)          (None, 12)                0         
_________________________________________________________________
dense_3 (Dense)              (None, 6)                 78        
_________________________________________________________________
dropout_4 (Dropout)          (None, 6)                 0         
_________________________________________________________________
dense_4 (Dense)              (None, 3)                 21        
_________________________________________________________________
dropout_5 (Dropout)          (None, 3)                 0         
_________________________________________________________________
dense_5 (Dense)              (None, 1)                 4         
=================================================================
Total params: 2,840
Trainable params: 2,840
Non-trainable params: 0
_________________________________________________________________
None
Train on 2918 samples, validate on 625 samples
Epoch 1/70

  50/2918 [..............................] - ETA: 1:09 - loss: 7.1846 - mean_squared_error: 7.1846
 900/2918 [========>.....................] - ETA: 2s - loss: 4.4945 - mean_squared_error: 4.4945  
…
2019-01-04 11:39:33.093077: I tensorflow/core/common_runtime/gpu/gpu_device.cc:1105] Found device 0 with properties: 
name: Tesla V100-PCIE-16GB major: 7 minor: 0 memoryClockRate(GHz): 1.38
pciBusID: 0000:af:00.0
totalMemory: 15.75GiB freeMemory: 15.34GiB
2019-01-04 11:39:33.093116: I tensorflow/core/common_runtime/gpu/gpu_device.cc:1195] Creating TensorFlow device (/device:GPU:0) -> (device: 0, name: Tesla V100-PCIE-16GB, pci bus id: 0000:af:00.0, compute capability: 7.0)
_________________________________________________________________
Layer (type)                 Output Shape              Param #   
=================================================================
dropout_1 (Dropout)          (None, 96)                0         
_________________________________________________________________
dense_1 (Dense)              (None, 25)                2425      
_________________________________________________________________
dropout_2 (Dropout)          (None, 25)                0         
_________________________________________________________________
dense_2 (Dense)              (None, 12)                312       
_________________________________________________________________
dropout_3 (Dropout)          (None, 12)                0         
_________________________________________________________________
dense_3 (Dense)              (None, 6)                 78        
_________________________________________________________________
dropout_4 (Dropout)          (None, 6)                 0         
_________________________________________________________________
dense_4 (Dense)              (None, 3)                 21        
_________________________________________________________________
dropout_5 (Dropout)          (None, 3)                 0         
_________________________________________________________________
dense_5 (Dense)              (None, 1)                 4         
_________________________________________________________________
dropout_6 (Dropout)          (None, 1)                 0         
_________________________________________________________________
dense_6 (Dense)              (None, 1)                 2         
=================================================================
Total params: 2,842
Trainable params: 2,842
Non-trainable params: 0
_________________________________________________________________
None
Train on 2918 samples, validate on 625 samples
Epoch 1/70

  50/2918 [..............................] - ETA: 1:12 - loss: 2.0301 - mean_squared_error: 2.0301
 800/2918 [=======>......................] - ETA: 3s - loss: 1.3439 - mean_squared_error: 1.3439  
…
2019-01-04 11:41:20.959718: I tensorflow/core/common_runtime/gpu/gpu_device.cc:1105] Found device 0 with properties: 
name: Tesla V100-PCIE-16GB major: 7 minor: 0 memoryClockRate(GHz): 1.38
pciBusID: 0000:af:00.0
totalMemory: 15.75GiB freeMemory: 15.34GiB
2019-01-04 11:41:20.959754: I tensorflow/core/common_runtime/gpu/gpu_device.cc:1195] Creating TensorFlow device (/device:GPU:0) -> (device: 0, name: Tesla V100-PCIE-16GB, pci bus id: 0000:af:00.0, compute capability: 7.0)
_________________________________________________________________
Layer (type)                 Output Shape              Param #   
=================================================================
dropout_1 (Dropout)          (None, 96)                0         
_________________________________________________________________
dense_1 (Dense)              (None, 250)               24250     
_________________________________________________________________
dropout_2 (Dropout)          (None, 250)               0         
_________________________________________________________________
dense_2 (Dense)              (None, 125)               31375     
_________________________________________________________________
dropout_3 (Dropout)          (None, 125)               0         
_________________________________________________________________
dense_3 (Dense)              (None, 1)                 126       
=================================================================
Total params: 55,751
Trainable params: 55,751
Non-trainable params: 0
_________________________________________________________________
None
Train on 2918 samples, validate on 625 samples
Epoch 1/70

  50/2918 [..............................] - ETA: 1:09 - loss: 2.1325 - mean_squared_error: 2.1325
1150/2918 [==========>...................] - ETA: 1s - loss: 1.3126 - mean_squared_error: 1.3126  
…
2019-01-04 11:41:34.894001: I tensorflow/core/common_runtime/gpu/gpu_device.cc:1105] Found device 0 with properties: 
name: Tesla V100-PCIE-16GB major: 7 minor: 0 memoryClockRate(GHz): 1.38
pciBusID: 0000:af:00.0
totalMemory: 15.75GiB freeMemory: 15.34GiB
2019-01-04 11:41:34.894040: I tensorflow/core/common_runtime/gpu/gpu_device.cc:1195] Creating TensorFlow device (/device:GPU:0) -> (device: 0, name: Tesla V100-PCIE-16GB, pci bus id: 0000:af:00.0, compute capability: 7.0)
_________________________________________________________________
Layer (type)                 Output Shape              Param #   
=================================================================
dropout_1 (Dropout)          (None, 96)                0         
_________________________________________________________________
dense_1 (Dense)              (None, 250)               24250     
_________________________________________________________________
dropout_2 (Dropout)          (None, 250)               0         
_________________________________________________________________
dense_2 (Dense)              (None, 125)               31375     
_________________________________________________________________
dropout_3 (Dropout)          (None, 125)               0         
_________________________________________________________________
dense_3 (Dense)              (None, 62)                7812      
_________________________________________________________________
dropout_4 (Dropout)          (None, 62)                0         
_________________________________________________________________
dense_4 (Dense)              (None, 1)                 63        
=================================================================
Total params: 63,500
Trainable params: 63,500
Non-trainable params: 0
_________________________________________________________________
None
Train on 2918 samples, validate on 625 samples
Epoch 1/70

  50/2918 [..............................] - ETA: 1:08 - loss: 20.8966 - mean_squared_error: 20.8966
1000/2918 [=========>....................] - ETA: 2s - loss: 3.6115 - mean_squared_error: 3.6115    
…
2019-01-04 11:41:50.144503: I tensorflow/core/common_runtime/gpu/gpu_device.cc:1105] Found device 0 with properties: 
name: Tesla V100-PCIE-16GB major: 7 minor: 0 memoryClockRate(GHz): 1.38
pciBusID: 0000:af:00.0
totalMemory: 15.75GiB freeMemory: 15.34GiB
2019-01-04 11:41:50.144541: I tensorflow/core/common_runtime/gpu/gpu_device.cc:1195] Creating TensorFlow device (/device:GPU:0) -> (device: 0, name: Tesla V100-PCIE-16GB, pci bus id: 0000:af:00.0, compute capability: 7.0)
_________________________________________________________________
Layer (type)                 Output Shape              Param #   
=================================================================
dropout_1 (Dropout)          (None, 96)                0         
_________________________________________________________________
dense_1 (Dense)              (None, 250)               24250     
_________________________________________________________________
dropout_2 (Dropout)          (None, 250)               0         
_________________________________________________________________
dense_2 (Dense)              (None, 125)               31375     
_________________________________________________________________
dropout_3 (Dropout)          (None, 125)               0         
_________________________________________________________________
dense_3 (Dense)              (None, 62)                7812      
_________________________________________________________________
dropout_4 (Dropout)          (None, 62)                0         
_________________________________________________________________
dense_4 (Dense)              (None, 31)                1953      
_________________________________________________________________
dropout_5 (Dropout)          (None, 31)                0         
_________________________________________________________________
dense_5 (Dense)              (None, 1)                 32        
=================================================================
Total params: 65,422
Trainable params: 65,422
Non-trainable params: 0
_________________________________________________________________
None
Train on 2918 samples, validate on 625 samples
Epoch 1/70

  50/2918 [..............................] - ETA: 1:09 - loss: 3.4860 - mean_squared_error: 3.4860
 900/2918 [========>.....................] - ETA: 2s - loss: 1.1257 - mean_squared_error: 1.1257  
…
2019-01-04 11:42:06.898781: I tensorflow/core/common_runtime/gpu/gpu_device.cc:1105] Found device 0 with properties: 
name: Tesla V100-PCIE-16GB major: 7 minor: 0 memoryClockRate(GHz): 1.38
pciBusID: 0000:af:00.0
totalMemory: 15.75GiB freeMemory: 15.34GiB
2019-01-04 11:42:06.898816: I tensorflow/core/common_runtime/gpu/gpu_device.cc:1195] Creating TensorFlow device (/device:GPU:0) -> (device: 0, name: Tesla V100-PCIE-16GB, pci bus id: 0000:af:00.0, compute capability: 7.0)
_________________________________________________________________
Layer (type)                 Output Shape              Param #   
=================================================================
dropout_1 (Dropout)          (None, 96)                0         
_________________________________________________________________
dense_1 (Dense)              (None, 250)               24250     
_________________________________________________________________
dropout_2 (Dropout)          (None, 250)               0         
_________________________________________________________________
dense_2 (Dense)              (None, 125)               31375     
_________________________________________________________________
dropout_3 (Dropout)          (None, 125)               0         
_________________________________________________________________
dense_3 (Dense)              (None, 62)                7812      
_________________________________________________________________
dropout_4 (Dropout)          (None, 62)                0         
_________________________________________________________________
dense_4 (Dense)              (None, 31)                1953      
_________________________________________________________________
dropout_5 (Dropout)          (None, 31)                0         
_________________________________________________________________
dense_5 (Dense)              (None, 15)                480       
_________________________________________________________________
dropout_6 (Dropout)          (None, 15)                0         
_________________________________________________________________
dense_6 (Dense)              (None, 1)                 16        
=================================================================
Total params: 65,886
Trainable params: 65,886
Non-trainable params: 0
_________________________________________________________________
None
Train on 2918 samples, validate on 625 samples
Epoch 1/70

  50/2918 [..............................] - ETA: 1:11 - loss: 11.2205 - mean_squared_error: 11.2205
 800/2918 [=======>......................] - ETA: 3s - loss: 2.2785 - mean_squared_error: 2.2785    
…
2019-01-04 11:43:54.360808: I tensorflow/core/common_runtime/gpu/gpu_device.cc:1105] Found device 0 with properties: 
name: Tesla V100-PCIE-16GB major: 7 minor: 0 memoryClockRate(GHz): 1.38
pciBusID: 0000:af:00.0
totalMemory: 15.75GiB freeMemory: 15.34GiB
2019-01-04 11:43:54.360849: I tensorflow/core/common_runtime/gpu/gpu_device.cc:1195] Creating TensorFlow device (/device:GPU:0) -> (device: 0, name: Tesla V100-PCIE-16GB, pci bus id: 0000:af:00.0, compute capability: 7.0)
_________________________________________________________________
Layer (type)                 Output Shape              Param #   
=================================================================
dropout_1 (Dropout)          (None, 96)                0         
_________________________________________________________________
dense_1 (Dense)              (None, 1000)              97000     
_________________________________________________________________
dropout_2 (Dropout)          (None, 1000)              0         
_________________________________________________________________
dense_2 (Dense)              (None, 500)               500500    
_________________________________________________________________
dropout_3 (Dropout)          (None, 500)               0         
_________________________________________________________________
dense_3 (Dense)              (None, 1)                 501       
=================================================================
Total params: 598,001
Trainable params: 598,001
Non-trainable params: 0
_________________________________________________________________
None
Train on 2918 samples, validate on 625 samples
Epoch 1/70

  50/2918 [..............................] - ETA: 1:06 - loss: 0.7426 - mean_squared_error: 0.7426
1150/2918 [==========>...................] - ETA: 1s - loss: 1.5056 - mean_squared_error: 1.5056  
…
2019-01-04 11:44:08.377559: I tensorflow/core/common_runtime/gpu/gpu_device.cc:1105] Found device 0 with properties: 
name: Tesla V100-PCIE-16GB major: 7 minor: 0 memoryClockRate(GHz): 1.38
pciBusID: 0000:af:00.0
totalMemory: 15.75GiB freeMemory: 15.34GiB
2019-01-04 11:44:08.377597: I tensorflow/core/common_runtime/gpu/gpu_device.cc:1195] Creating TensorFlow device (/device:GPU:0) -> (device: 0, name: Tesla V100-PCIE-16GB, pci bus id: 0000:af:00.0, compute capability: 7.0)
_________________________________________________________________
Layer (type)                 Output Shape              Param #   
=================================================================
dropout_1 (Dropout)          (None, 96)                0         
_________________________________________________________________
dense_1 (Dense)              (None, 1000)              97000     
_________________________________________________________________
dropout_2 (Dropout)          (None, 1000)              0         
_________________________________________________________________
dense_2 (Dense)              (None, 500)               500500    
_________________________________________________________________
dropout_3 (Dropout)          (None, 500)               0         
_________________________________________________________________
dense_3 (Dense)              (None, 250)               125250    
_________________________________________________________________
dropout_4 (Dropout)          (None, 250)               0         
_________________________________________________________________
dense_4 (Dense)              (None, 1)                 251       
=================================================================
Total params: 723,001
Trainable params: 723,001
Non-trainable params: 0
_________________________________________________________________
None
Train on 2918 samples, validate on 625 samples
Epoch 1/70

  50/2918 [..............................] - ETA: 1:08 - loss: 1.1869 - mean_squared_error: 1.1869
1000/2918 [=========>....................] - ETA: 2s - loss: 1.1570 - mean_squared_error: 1.1570  
…
2019-01-04 11:44:23.842047: I tensorflow/core/common_runtime/gpu/gpu_device.cc:1105] Found device 0 with properties: 
name: Tesla V100-PCIE-16GB major: 7 minor: 0 memoryClockRate(GHz): 1.38
pciBusID: 0000:af:00.0
totalMemory: 15.75GiB freeMemory: 15.34GiB
2019-01-04 11:44:23.842082: I tensorflow/core/common_runtime/gpu/gpu_device.cc:1195] Creating TensorFlow device (/device:GPU:0) -> (device: 0, name: Tesla V100-PCIE-16GB, pci bus id: 0000:af:00.0, compute capability: 7.0)
_________________________________________________________________
Layer (type)                 Output Shape              Param #   
=================================================================
dropout_1 (Dropout)          (None, 96)                0         
_________________________________________________________________
dense_1 (Dense)              (None, 1000)              97000     
_________________________________________________________________
dropout_2 (Dropout)          (None, 1000)              0         
_________________________________________________________________
dense_2 (Dense)              (None, 500)               500500    
_________________________________________________________________
dropout_3 (Dropout)          (None, 500)               0         
_________________________________________________________________
dense_3 (Dense)              (None, 250)               125250    
_________________________________________________________________
dropout_4 (Dropout)          (None, 250)               0         
_________________________________________________________________
dense_4 (Dense)              (None, 125)               31375     
_________________________________________________________________
dropout_5 (Dropout)          (None, 125)               0         
_________________________________________________________________
dense_5 (Dense)              (None, 1)                 126       
=================================================================
Total params: 754,251
Trainable params: 754,251
Non-trainable params: 0
_________________________________________________________________
None
Train on 2918 samples, validate on 625 samples
Epoch 1/70

  50/2918 [..............................] - ETA: 1:09 - loss: 1.2396 - mean_squared_error: 1.2396
 900/2918 [========>.....................] - ETA: 2s - loss: 0.5954 - mean_squared_error: 0.5954  
…
2019-01-04 11:44:40.681086: I tensorflow/core/common_runtime/gpu/gpu_device.cc:1105] Found device 0 with properties: 
name: Tesla V100-PCIE-16GB major: 7 minor: 0 memoryClockRate(GHz): 1.38
pciBusID: 0000:af:00.0
totalMemory: 15.75GiB freeMemory: 15.34GiB
2019-01-04 11:44:40.681128: I tensorflow/core/common_runtime/gpu/gpu_device.cc:1195] Creating TensorFlow device (/device:GPU:0) -> (device: 0, name: Tesla V100-PCIE-16GB, pci bus id: 0000:af:00.0, compute capability: 7.0)
_________________________________________________________________
Layer (type)                 Output Shape              Param #   
=================================================================
dropout_1 (Dropout)          (None, 96)                0         
_________________________________________________________________
dense_1 (Dense)              (None, 1000)              97000     
_________________________________________________________________
dropout_2 (Dropout)          (None, 1000)              0         
_________________________________________________________________
dense_2 (Dense)              (None, 500)               500500    
_________________________________________________________________
dropout_3 (Dropout)          (None, 500)               0         
_________________________________________________________________
dense_3 (Dense)              (None, 250)               125250    
_________________________________________________________________
dropout_4 (Dropout)          (None, 250)               0         
_________________________________________________________________
dense_4 (Dense)              (None, 125)               31375     
_________________________________________________________________
dropout_5 (Dropout)          (None, 125)               0         
_________________________________________________________________
dense_5 (Dense)              (None, 62)                7812      
_________________________________________________________________
dropout_6 (Dropout)          (None, 62)                0         
_________________________________________________________________
dense_6 (Dense)              (None, 1)                 63        
=================================================================
Total params: 762,000
Trainable params: 762,000
Non-trainable params: 0
_________________________________________________________________
None
Train on 2918 samples, validate on 625 samples
Epoch 1/70

  50/2918 [..............................] - ETA: 1:11 - loss: 0.7789 - mean_squared_error: 0.7789
 850/2918 [=======>......................] - ETA: 3s - loss: 0.5097 - mean_squared_error: 0.5097  
…
