…
2019-01-09 12:04:28.513805: I tensorflow/core/common_runtime/gpu/gpu_device.cc:1105] Found device 0 with properties: 
name: Tesla V100-PCIE-16GB major: 7 minor: 0 memoryClockRate(GHz): 1.38
pciBusID: 0000:af:00.0
totalMemory: 15.75GiB freeMemory: 15.34GiB
2019-01-09 12:04:28.513842: I tensorflow/core/common_runtime/gpu/gpu_device.cc:1195] Creating TensorFlow device (/device:GPU:0) -> (device: 0, name: Tesla V100-PCIE-16GB, pci bus id: 0000:af:00.0, compute capability: 7.0)
_________________________________________________________________
Layer (type)                 Output Shape              Param #   
=================================================================
dropout_1 (Dropout)          (None, 32798)             0         
_________________________________________________________________
dense_1 (Dense)              (None, 250)               8199750   
_________________________________________________________________
dropout_2 (Dropout)          (None, 250)               0         
_________________________________________________________________
dense_2 (Dense)              (None, 125)               31375     
_________________________________________________________________
dropout_3 (Dropout)          (None, 125)               0         
_________________________________________________________________
dense_3 (Dense)              (None, 62)                7812      
_________________________________________________________________
dropout_4 (Dropout)          (None, 62)                0         
_________________________________________________________________
dense_4 (Dense)              (None, 1)                 63        
=================================================================
Total params: 8,239,000
Trainable params: 8,239,000
Non-trainable params: 0
_________________________________________________________________
None
Train on 2918 samples, validate on 625 samples
Epoch 1/70

  50/2918 [..............................] - ETA: 4:11 - loss: 0.7515 - mean_squared_error: 0.7515
 300/2918 [==>...........................] - ETA: 38s - loss: 0.5382 - mean_squared_error: 0.5382 
…
2019-01-09 12:05:17.922289: I tensorflow/core/common_runtime/gpu/gpu_device.cc:1105] Found device 0 with properties: 
name: Tesla V100-PCIE-16GB major: 7 minor: 0 memoryClockRate(GHz): 1.38
pciBusID: 0000:af:00.0
totalMemory: 15.75GiB freeMemory: 15.34GiB
2019-01-09 12:05:17.922327: I tensorflow/core/common_runtime/gpu/gpu_device.cc:1195] Creating TensorFlow device (/device:GPU:0) -> (device: 0, name: Tesla V100-PCIE-16GB, pci bus id: 0000:af:00.0, compute capability: 7.0)
_________________________________________________________________
Layer (type)                 Output Shape              Param #   
=================================================================
dropout_1 (Dropout)          (None, 32798)             0         
_________________________________________________________________
dense_1 (Dense)              (None, 350)               11479650  
_________________________________________________________________
dropout_2 (Dropout)          (None, 350)               0         
_________________________________________________________________
dense_2 (Dense)              (None, 175)               61425     
_________________________________________________________________
dropout_3 (Dropout)          (None, 175)               0         
_________________________________________________________________
dense_3 (Dense)              (None, 87)                15312     
_________________________________________________________________
dropout_4 (Dropout)          (None, 87)                0         
_________________________________________________________________
dense_4 (Dense)              (None, 1)                 88        
=================================================================
Total params: 11,556,475
Trainable params: 11,556,475
Non-trainable params: 0
_________________________________________________________________
None
Train on 2918 samples, validate on 625 samples
Epoch 1/70

  50/2918 [..............................] - ETA: 1:05 - loss: 0.8490 - mean_squared_error: 0.8490
 300/2918 [==>...........................] - ETA: 10s - loss: 0.6817 - mean_squared_error: 0.6817 
…
2019-01-09 12:06:06.744765: I tensorflow/core/common_runtime/gpu/gpu_device.cc:1105] Found device 0 with properties: 
name: Tesla V100-PCIE-16GB major: 7 minor: 0 memoryClockRate(GHz): 1.38
pciBusID: 0000:af:00.0
totalMemory: 15.75GiB freeMemory: 15.34GiB
2019-01-09 12:06:06.744803: I tensorflow/core/common_runtime/gpu/gpu_device.cc:1195] Creating TensorFlow device (/device:GPU:0) -> (device: 0, name: Tesla V100-PCIE-16GB, pci bus id: 0000:af:00.0, compute capability: 7.0)
_________________________________________________________________
Layer (type)                 Output Shape              Param #   
=================================================================
dropout_1 (Dropout)          (None, 32798)             0         
_________________________________________________________________
dense_1 (Dense)              (None, 400)               13119600  
_________________________________________________________________
dropout_2 (Dropout)          (None, 400)               0         
_________________________________________________________________
dense_2 (Dense)              (None, 200)               80200     
_________________________________________________________________
dropout_3 (Dropout)          (None, 200)               0         
_________________________________________________________________
dense_3 (Dense)              (None, 100)               20100     
_________________________________________________________________
dropout_4 (Dropout)          (None, 100)               0         
_________________________________________________________________
dense_4 (Dense)              (None, 1)                 101       
=================================================================
Total params: 13,220,001
Trainable params: 13,220,001
Non-trainable params: 0
_________________________________________________________________
None
Train on 2918 samples, validate on 625 samples
Epoch 1/70

  50/2918 [..............................] - ETA: 1:05 - loss: 0.9286 - mean_squared_error: 0.9286
 250/2918 [=>............................] - ETA: 12s - loss: 0.7302 - mean_squared_error: 0.7302 
…
2019-01-09 12:06:58.071972: I tensorflow/core/common_runtime/gpu/gpu_device.cc:1105] Found device 0 with properties: 
name: Tesla V100-PCIE-16GB major: 7 minor: 0 memoryClockRate(GHz): 1.38
pciBusID: 0000:af:00.0
totalMemory: 15.75GiB freeMemory: 15.34GiB
2019-01-09 12:06:58.072011: I tensorflow/core/common_runtime/gpu/gpu_device.cc:1195] Creating TensorFlow device (/device:GPU:0) -> (device: 0, name: Tesla V100-PCIE-16GB, pci bus id: 0000:af:00.0, compute capability: 7.0)
_________________________________________________________________
Layer (type)                 Output Shape              Param #   
=================================================================
dropout_1 (Dropout)          (None, 32798)             0         
_________________________________________________________________
dense_1 (Dense)              (None, 450)               14759550  
_________________________________________________________________
dropout_2 (Dropout)          (None, 450)               0         
_________________________________________________________________
dense_2 (Dense)              (None, 225)               101475    
_________________________________________________________________
dropout_3 (Dropout)          (None, 225)               0         
_________________________________________________________________
dense_3 (Dense)              (None, 112)               25312     
_________________________________________________________________
dropout_4 (Dropout)          (None, 112)               0         
_________________________________________________________________
dense_4 (Dense)              (None, 1)                 113       
=================================================================
Total params: 14,886,450
Trainable params: 14,886,450
Non-trainable params: 0
_________________________________________________________________
None
Train on 2918 samples, validate on 625 samples
Epoch 1/70

  50/2918 [..............................] - ETA: 1:06 - loss: 4.7729 - mean_squared_error: 4.7729
 300/2918 [==>...........................] - ETA: 10s - loss: 1.6555 - mean_squared_error: 1.6555 
…
2019-01-09 12:07:50.643217: I tensorflow/core/common_runtime/gpu/gpu_device.cc:1105] Found device 0 with properties: 
name: Tesla V100-PCIE-16GB major: 7 minor: 0 memoryClockRate(GHz): 1.38
pciBusID: 0000:af:00.0
totalMemory: 15.75GiB freeMemory: 15.34GiB
2019-01-09 12:07:50.643256: I tensorflow/core/common_runtime/gpu/gpu_device.cc:1195] Creating TensorFlow device (/device:GPU:0) -> (device: 0, name: Tesla V100-PCIE-16GB, pci bus id: 0000:af:00.0, compute capability: 7.0)
_________________________________________________________________
Layer (type)                 Output Shape              Param #   
=================================================================
dropout_1 (Dropout)          (None, 32798)             0         
_________________________________________________________________
dense_1 (Dense)              (None, 550)               18039450  
_________________________________________________________________
dropout_2 (Dropout)          (None, 550)               0         
_________________________________________________________________
dense_2 (Dense)              (None, 275)               151525    
_________________________________________________________________
dropout_3 (Dropout)          (None, 275)               0         
_________________________________________________________________
dense_3 (Dense)              (None, 137)               37812     
_________________________________________________________________
dropout_4 (Dropout)          (None, 137)               0         
_________________________________________________________________
dense_4 (Dense)              (None, 1)                 138       
=================================================================
Total params: 18,228,925
Trainable params: 18,228,925
Non-trainable params: 0
_________________________________________________________________
None
Train on 2918 samples, validate on 625 samples
Epoch 1/70

  50/2918 [..............................] - ETA: 1:09 - loss: 2.2174 - mean_squared_error: 2.2174
 250/2918 [=>............................] - ETA: 13s - loss: 1.0093 - mean_squared_error: 1.0093 
…
