…
2019-01-09 12:19:40.920901: I tensorflow/core/common_runtime/gpu/gpu_device.cc:1105] Found device 0 with properties: 
name: Tesla V100-PCIE-16GB major: 7 minor: 0 memoryClockRate(GHz): 1.38
pciBusID: 0000:37:00.0
totalMemory: 15.75GiB freeMemory: 15.34GiB
2019-01-09 12:19:40.920940: I tensorflow/core/common_runtime/gpu/gpu_device.cc:1195] Creating TensorFlow device (/device:GPU:0) -> (device: 0, name: Tesla V100-PCIE-16GB, pci bus id: 0000:37:00.0, compute capability: 7.0)
_________________________________________________________________
Layer (type)                 Output Shape              Param #   
=================================================================
dropout_1 (Dropout)          (None, 32798)             0         
_________________________________________________________________
dense_1 (Dense)              (None, 250)               8199750   
_________________________________________________________________
dropout_2 (Dropout)          (None, 250)               0         
_________________________________________________________________
dense_2 (Dense)              (None, 125)               31375     
_________________________________________________________________
dropout_3 (Dropout)          (None, 125)               0         
_________________________________________________________________
dense_3 (Dense)              (None, 62)                7812      
_________________________________________________________________
dropout_4 (Dropout)          (None, 62)                0         
_________________________________________________________________
dense_4 (Dense)              (None, 31)                1953      
_________________________________________________________________
dropout_5 (Dropout)          (None, 31)                0         
_________________________________________________________________
dense_5 (Dense)              (None, 15)                480       
_________________________________________________________________
dropout_6 (Dropout)          (None, 15)                0         
_________________________________________________________________
dense_6 (Dense)              (None, 7)                 112       
_________________________________________________________________
dropout_7 (Dropout)          (None, 7)                 0         
_________________________________________________________________
dense_7 (Dense)              (None, 1)                 8         
=================================================================
Total params: 8,241,490
Trainable params: 8,241,490
Non-trainable params: 0
_________________________________________________________________
None
Train on 2918 samples, validate on 625 samples
Epoch 1/70

  50/2918 [..............................] - ETA: 3:19 - loss: 1.5889 - mean_squared_error: 1.5889
 300/2918 [==>...........................] - ETA: 30s - loss: 1.7455 - mean_squared_error: 1.7455 
…
2019-01-09 12:20:33.401859: I tensorflow/core/common_runtime/gpu/gpu_device.cc:1105] Found device 0 with properties: 
name: Tesla V100-PCIE-16GB major: 7 minor: 0 memoryClockRate(GHz): 1.38
pciBusID: 0000:37:00.0
totalMemory: 15.75GiB freeMemory: 15.34GiB
2019-01-09 12:20:33.401897: I tensorflow/core/common_runtime/gpu/gpu_device.cc:1195] Creating TensorFlow device (/device:GPU:0) -> (device: 0, name: Tesla V100-PCIE-16GB, pci bus id: 0000:37:00.0, compute capability: 7.0)
_________________________________________________________________
Layer (type)                 Output Shape              Param #   
=================================================================
dropout_1 (Dropout)          (None, 32798)             0         
_________________________________________________________________
dense_1 (Dense)              (None, 350)               11479650  
_________________________________________________________________
dropout_2 (Dropout)          (None, 350)               0         
_________________________________________________________________
dense_2 (Dense)              (None, 175)               61425     
_________________________________________________________________
dropout_3 (Dropout)          (None, 175)               0         
_________________________________________________________________
dense_3 (Dense)              (None, 87)                15312     
_________________________________________________________________
dropout_4 (Dropout)          (None, 87)                0         
_________________________________________________________________
dense_4 (Dense)              (None, 43)                3784      
_________________________________________________________________
dropout_5 (Dropout)          (None, 43)                0         
_________________________________________________________________
dense_5 (Dense)              (None, 21)                924       
_________________________________________________________________
dropout_6 (Dropout)          (None, 21)                0         
_________________________________________________________________
dense_6 (Dense)              (None, 10)                220       
_________________________________________________________________
dropout_7 (Dropout)          (None, 10)                0         
_________________________________________________________________
dense_7 (Dense)              (None, 1)                 11        
=================================================================
Total params: 11,561,326
Trainable params: 11,561,326
Non-trainable params: 0
_________________________________________________________________
None
Train on 2918 samples, validate on 625 samples
Epoch 1/70

  50/2918 [..............................] - ETA: 1:12 - loss: 1.1597 - mean_squared_error: 1.1597
 250/2918 [=>............................] - ETA: 13s - loss: 0.8920 - mean_squared_error: 0.8920 
…
2019-01-09 12:21:27.019360: I tensorflow/core/common_runtime/gpu/gpu_device.cc:1105] Found device 0 with properties: 
name: Tesla V100-PCIE-16GB major: 7 minor: 0 memoryClockRate(GHz): 1.38
pciBusID: 0000:37:00.0
totalMemory: 15.75GiB freeMemory: 15.34GiB
2019-01-09 12:21:27.019398: I tensorflow/core/common_runtime/gpu/gpu_device.cc:1195] Creating TensorFlow device (/device:GPU:0) -> (device: 0, name: Tesla V100-PCIE-16GB, pci bus id: 0000:37:00.0, compute capability: 7.0)
_________________________________________________________________
Layer (type)                 Output Shape              Param #   
=================================================================
dropout_1 (Dropout)          (None, 32798)             0         
_________________________________________________________________
dense_1 (Dense)              (None, 400)               13119600  
_________________________________________________________________
dropout_2 (Dropout)          (None, 400)               0         
_________________________________________________________________
dense_2 (Dense)              (None, 200)               80200     
_________________________________________________________________
dropout_3 (Dropout)          (None, 200)               0         
_________________________________________________________________
dense_3 (Dense)              (None, 100)               20100     
_________________________________________________________________
dropout_4 (Dropout)          (None, 100)               0         
_________________________________________________________________
dense_4 (Dense)              (None, 50)                5050      
_________________________________________________________________
dropout_5 (Dropout)          (None, 50)                0         
_________________________________________________________________
dense_5 (Dense)              (None, 25)                1275      
_________________________________________________________________
dropout_6 (Dropout)          (None, 25)                0         
_________________________________________________________________
dense_6 (Dense)              (None, 12)                312       
_________________________________________________________________
dropout_7 (Dropout)          (None, 12)                0         
_________________________________________________________________
dense_7 (Dense)              (None, 1)                 13        
=================================================================
Total params: 13,226,550
Trainable params: 13,226,550
Non-trainable params: 0
_________________________________________________________________
None
Train on 2918 samples, validate on 625 samples
Epoch 1/70

  50/2918 [..............................] - ETA: 1:13 - loss: 1.6121 - mean_squared_error: 1.6121
 250/2918 [=>............................] - ETA: 14s - loss: 1.5646 - mean_squared_error: 1.5646 
…
2019-01-09 12:22:22.117430: I tensorflow/core/common_runtime/gpu/gpu_device.cc:1105] Found device 0 with properties: 
name: Tesla V100-PCIE-16GB major: 7 minor: 0 memoryClockRate(GHz): 1.38
pciBusID: 0000:37:00.0
totalMemory: 15.75GiB freeMemory: 15.34GiB
2019-01-09 12:22:22.117467: I tensorflow/core/common_runtime/gpu/gpu_device.cc:1195] Creating TensorFlow device (/device:GPU:0) -> (device: 0, name: Tesla V100-PCIE-16GB, pci bus id: 0000:37:00.0, compute capability: 7.0)
_________________________________________________________________
Layer (type)                 Output Shape              Param #   
=================================================================
dropout_1 (Dropout)          (None, 32798)             0         
_________________________________________________________________
dense_1 (Dense)              (None, 450)               14759550  
_________________________________________________________________
dropout_2 (Dropout)          (None, 450)               0         
_________________________________________________________________
dense_2 (Dense)              (None, 225)               101475    
_________________________________________________________________
dropout_3 (Dropout)          (None, 225)               0         
_________________________________________________________________
dense_3 (Dense)              (None, 112)               25312     
_________________________________________________________________
dropout_4 (Dropout)          (None, 112)               0         
_________________________________________________________________
dense_4 (Dense)              (None, 56)                6328      
_________________________________________________________________
dropout_5 (Dropout)          (None, 56)                0         
_________________________________________________________________
dense_5 (Dense)              (None, 28)                1596      
_________________________________________________________________
dropout_6 (Dropout)          (None, 28)                0         
_________________________________________________________________
dense_6 (Dense)              (None, 14)                406       
_________________________________________________________________
dropout_7 (Dropout)          (None, 14)                0         
_________________________________________________________________
dense_7 (Dense)              (None, 1)                 15        
=================================================================
Total params: 14,894,682
Trainable params: 14,894,682
Non-trainable params: 0
_________________________________________________________________
None
Train on 2918 samples, validate on 625 samples
Epoch 1/70

  50/2918 [..............................] - ETA: 1:13 - loss: 0.4828 - mean_squared_error: 0.4828
 250/2918 [=>............................] - ETA: 14s - loss: 0.4401 - mean_squared_error: 0.4401 
…
2019-01-09 12:23:18.791709: I tensorflow/core/common_runtime/gpu/gpu_device.cc:1105] Found device 0 with properties: 
name: Tesla V100-PCIE-16GB major: 7 minor: 0 memoryClockRate(GHz): 1.38
pciBusID: 0000:37:00.0
totalMemory: 15.75GiB freeMemory: 15.34GiB
2019-01-09 12:23:18.791748: I tensorflow/core/common_runtime/gpu/gpu_device.cc:1195] Creating TensorFlow device (/device:GPU:0) -> (device: 0, name: Tesla V100-PCIE-16GB, pci bus id: 0000:37:00.0, compute capability: 7.0)
_________________________________________________________________
Layer (type)                 Output Shape              Param #   
=================================================================
dropout_1 (Dropout)          (None, 32798)             0         
_________________________________________________________________
dense_1 (Dense)              (None, 550)               18039450  
_________________________________________________________________
dropout_2 (Dropout)          (None, 550)               0         
_________________________________________________________________
dense_2 (Dense)              (None, 275)               151525    
_________________________________________________________________
dropout_3 (Dropout)          (None, 275)               0         
_________________________________________________________________
dense_3 (Dense)              (None, 137)               37812     
_________________________________________________________________
dropout_4 (Dropout)          (None, 137)               0         
_________________________________________________________________
dense_4 (Dense)              (None, 68)                9384      
_________________________________________________________________
dropout_5 (Dropout)          (None, 68)                0         
_________________________________________________________________
dense_5 (Dense)              (None, 34)                2346      
_________________________________________________________________
dropout_6 (Dropout)          (None, 34)                0         
_________________________________________________________________
dense_6 (Dense)              (None, 17)                595       
_________________________________________________________________
dropout_7 (Dropout)          (None, 17)                0         
_________________________________________________________________
dense_7 (Dense)              (None, 1)                 18        
=================================================================
Total params: 18,241,130
Trainable params: 18,241,130
Non-trainable params: 0
_________________________________________________________________
None
Train on 2918 samples, validate on 625 samples
Epoch 1/70

  50/2918 [..............................] - ETA: 1:16 - loss: 0.8690 - mean_squared_error: 0.8690
 250/2918 [=>............................] - ETA: 14s - loss: 0.6038 - mean_squared_error: 0.6038 
…
