…
2019-01-09 12:04:32.759066: I tensorflow/core/common_runtime/gpu/gpu_device.cc:1105] Found device 0 with properties: 
name: Tesla V100-PCIE-16GB major: 7 minor: 0 memoryClockRate(GHz): 1.38
pciBusID: 0000:af:00.0
totalMemory: 15.75GiB freeMemory: 15.34GiB
2019-01-09 12:04:32.759105: I tensorflow/core/common_runtime/gpu/gpu_device.cc:1195] Creating TensorFlow device (/device:GPU:0) -> (device: 0, name: Tesla V100-PCIE-16GB, pci bus id: 0000:af:00.0, compute capability: 7.0)
_________________________________________________________________
Layer (type)                 Output Shape              Param #   
=================================================================
dropout_1 (Dropout)          (None, 32798)             0         
_________________________________________________________________
dense_1 (Dense)              (None, 250)               8199750   
_________________________________________________________________
dropout_2 (Dropout)          (None, 250)               0         
_________________________________________________________________
dense_2 (Dense)              (None, 125)               31375     
_________________________________________________________________
dropout_3 (Dropout)          (None, 125)               0         
_________________________________________________________________
dense_3 (Dense)              (None, 62)                7812      
_________________________________________________________________
dropout_4 (Dropout)          (None, 62)                0         
_________________________________________________________________
dense_4 (Dense)              (None, 31)                1953      
_________________________________________________________________
dropout_5 (Dropout)          (None, 31)                0         
_________________________________________________________________
dense_5 (Dense)              (None, 15)                480       
_________________________________________________________________
dropout_6 (Dropout)          (None, 15)                0         
_________________________________________________________________
dense_6 (Dense)              (None, 1)                 16        
=================================================================
Total params: 8,241,386
Trainable params: 8,241,386
Non-trainable params: 0
_________________________________________________________________
None
Train on 2918 samples, validate on 625 samples
Epoch 1/70

  50/2918 [..............................] - ETA: 3:50 - loss: 3.3191 - mean_squared_error: 3.3191
 200/2918 [=>............................] - ETA: 55s - loss: 3.1767 - mean_squared_error: 3.1767 
…
2019-01-09 12:05:41.146030: I tensorflow/core/common_runtime/gpu/gpu_device.cc:1105] Found device 0 with properties: 
name: Tesla V100-PCIE-16GB major: 7 minor: 0 memoryClockRate(GHz): 1.38
pciBusID: 0000:af:00.0
totalMemory: 15.75GiB freeMemory: 15.34GiB
2019-01-09 12:05:41.146070: I tensorflow/core/common_runtime/gpu/gpu_device.cc:1195] Creating TensorFlow device (/device:GPU:0) -> (device: 0, name: Tesla V100-PCIE-16GB, pci bus id: 0000:af:00.0, compute capability: 7.0)
_________________________________________________________________
Layer (type)                 Output Shape              Param #   
=================================================================
dropout_1 (Dropout)          (None, 32798)             0         
_________________________________________________________________
dense_1 (Dense)              (None, 350)               11479650  
_________________________________________________________________
dropout_2 (Dropout)          (None, 350)               0         
_________________________________________________________________
dense_2 (Dense)              (None, 175)               61425     
_________________________________________________________________
dropout_3 (Dropout)          (None, 175)               0         
_________________________________________________________________
dense_3 (Dense)              (None, 87)                15312     
_________________________________________________________________
dropout_4 (Dropout)          (None, 87)                0         
_________________________________________________________________
dense_4 (Dense)              (None, 43)                3784      
_________________________________________________________________
dropout_5 (Dropout)          (None, 43)                0         
_________________________________________________________________
dense_5 (Dense)              (None, 21)                924       
_________________________________________________________________
dropout_6 (Dropout)          (None, 21)                0         
_________________________________________________________________
dense_6 (Dense)              (None, 1)                 22        
=================================================================
Total params: 11,561,117
Trainable params: 11,561,117
Non-trainable params: 0
_________________________________________________________________
None
Train on 2918 samples, validate on 625 samples
Epoch 1/70

  50/2918 [..............................] - ETA: 1:18 - loss: 0.5283 - mean_squared_error: 0.5283
 200/2918 [=>............................] - ETA: 19s - loss: 0.3874 - mean_squared_error: 0.3874 
…
2019-01-09 12:06:49.510380: I tensorflow/core/common_runtime/gpu/gpu_device.cc:1105] Found device 0 with properties: 
name: Tesla V100-PCIE-16GB major: 7 minor: 0 memoryClockRate(GHz): 1.38
pciBusID: 0000:af:00.0
totalMemory: 15.75GiB freeMemory: 15.34GiB
2019-01-09 12:06:49.510419: I tensorflow/core/common_runtime/gpu/gpu_device.cc:1195] Creating TensorFlow device (/device:GPU:0) -> (device: 0, name: Tesla V100-PCIE-16GB, pci bus id: 0000:af:00.0, compute capability: 7.0)
_________________________________________________________________
Layer (type)                 Output Shape              Param #   
=================================================================
dropout_1 (Dropout)          (None, 32798)             0         
_________________________________________________________________
dense_1 (Dense)              (None, 400)               13119600  
_________________________________________________________________
dropout_2 (Dropout)          (None, 400)               0         
_________________________________________________________________
dense_2 (Dense)              (None, 200)               80200     
_________________________________________________________________
dropout_3 (Dropout)          (None, 200)               0         
_________________________________________________________________
dense_3 (Dense)              (None, 100)               20100     
_________________________________________________________________
dropout_4 (Dropout)          (None, 100)               0         
_________________________________________________________________
dense_4 (Dense)              (None, 50)                5050      
_________________________________________________________________
dropout_5 (Dropout)          (None, 50)                0         
_________________________________________________________________
dense_5 (Dense)              (None, 25)                1275      
_________________________________________________________________
dropout_6 (Dropout)          (None, 25)                0         
_________________________________________________________________
dense_6 (Dense)              (None, 1)                 26        
=================================================================
Total params: 13,226,251
Trainable params: 13,226,251
Non-trainable params: 0
_________________________________________________________________
None
Train on 2918 samples, validate on 625 samples
Epoch 1/70

  50/2918 [..............................] - ETA: 1:21 - loss: 0.3434 - mean_squared_error: 0.3434
 250/2918 [=>............................] - ETA: 15s - loss: 0.4152 - mean_squared_error: 0.4152 
…
2019-01-09 12:07:58.072824: I tensorflow/core/common_runtime/gpu/gpu_device.cc:1105] Found device 0 with properties: 
name: Tesla V100-PCIE-16GB major: 7 minor: 0 memoryClockRate(GHz): 1.38
pciBusID: 0000:af:00.0
totalMemory: 15.75GiB freeMemory: 15.34GiB
2019-01-09 12:07:58.072862: I tensorflow/core/common_runtime/gpu/gpu_device.cc:1195] Creating TensorFlow device (/device:GPU:0) -> (device: 0, name: Tesla V100-PCIE-16GB, pci bus id: 0000:af:00.0, compute capability: 7.0)
_________________________________________________________________
Layer (type)                 Output Shape              Param #   
=================================================================
dropout_1 (Dropout)          (None, 32798)             0         
_________________________________________________________________
dense_1 (Dense)              (None, 450)               14759550  
_________________________________________________________________
dropout_2 (Dropout)          (None, 450)               0         
_________________________________________________________________
dense_2 (Dense)              (None, 225)               101475    
_________________________________________________________________
dropout_3 (Dropout)          (None, 225)               0         
_________________________________________________________________
dense_3 (Dense)              (None, 112)               25312     
_________________________________________________________________
dropout_4 (Dropout)          (None, 112)               0         
_________________________________________________________________
dense_4 (Dense)              (None, 56)                6328      
_________________________________________________________________
dropout_5 (Dropout)          (None, 56)                0         
_________________________________________________________________
dense_5 (Dense)              (None, 28)                1596      
_________________________________________________________________
dropout_6 (Dropout)          (None, 28)                0         
_________________________________________________________________
dense_6 (Dense)              (None, 1)                 29        
=================================================================
Total params: 14,894,290
Trainable params: 14,894,290
Non-trainable params: 0
_________________________________________________________________
None
Train on 2918 samples, validate on 625 samples
Epoch 1/70

  50/2918 [..............................] - ETA: 1:20 - loss: 0.4387 - mean_squared_error: 0.4387
 250/2918 [=>............................] - ETA: 15s - loss: 0.4361 - mean_squared_error: 0.4361 
…
2019-01-09 12:09:08.211543: I tensorflow/core/common_runtime/gpu/gpu_device.cc:1105] Found device 0 with properties: 
name: Tesla V100-PCIE-16GB major: 7 minor: 0 memoryClockRate(GHz): 1.38
pciBusID: 0000:af:00.0
totalMemory: 15.75GiB freeMemory: 15.34GiB
2019-01-09 12:09:08.211586: I tensorflow/core/common_runtime/gpu/gpu_device.cc:1195] Creating TensorFlow device (/device:GPU:0) -> (device: 0, name: Tesla V100-PCIE-16GB, pci bus id: 0000:af:00.0, compute capability: 7.0)
_________________________________________________________________
Layer (type)                 Output Shape              Param #   
=================================================================
dropout_1 (Dropout)          (None, 32798)             0         
_________________________________________________________________
dense_1 (Dense)              (None, 550)               18039450  
_________________________________________________________________
dropout_2 (Dropout)          (None, 550)               0         
_________________________________________________________________
dense_2 (Dense)              (None, 275)               151525    
_________________________________________________________________
dropout_3 (Dropout)          (None, 275)               0         
_________________________________________________________________
dense_3 (Dense)              (None, 137)               37812     
_________________________________________________________________
dropout_4 (Dropout)          (None, 137)               0         
_________________________________________________________________
dense_4 (Dense)              (None, 68)                9384      
_________________________________________________________________
dropout_5 (Dropout)          (None, 68)                0         
_________________________________________________________________
dense_5 (Dense)              (None, 34)                2346      
_________________________________________________________________
dropout_6 (Dropout)          (None, 34)                0         
_________________________________________________________________
dense_6 (Dense)              (None, 1)                 35        
=================================================================
Total params: 18,240,552
Trainable params: 18,240,552
Non-trainable params: 0
_________________________________________________________________
None
Train on 2918 samples, validate on 625 samples
Epoch 1/70

  50/2918 [..............................] - ETA: 1:18 - loss: 0.9442 - mean_squared_error: 0.9442
 200/2918 [=>............................] - ETA: 19s - loss: 0.6776 - mean_squared_error: 0.6776 
…
