…
2019-01-08 22:24:06.320001: I tensorflow/core/common_runtime/gpu/gpu_device.cc:1105] Found device 0 with properties: 
name: Tesla V100-PCIE-16GB major: 7 minor: 0 memoryClockRate(GHz): 1.38
pciBusID: 0000:37:00.0
totalMemory: 15.75GiB freeMemory: 15.34GiB
2019-01-08 22:24:06.320037: I tensorflow/core/common_runtime/gpu/gpu_device.cc:1195] Creating TensorFlow device (/device:GPU:0) -> (device: 0, name: Tesla V100-PCIE-16GB, pci bus id: 0000:37:00.0, compute capability: 7.0)
_________________________________________________________________
Layer (type)                 Output Shape              Param #   
=================================================================
dropout_1 (Dropout)          (None, 32798)             0         
_________________________________________________________________
dense_1 (Dense)              (None, 200)               6559800   
_________________________________________________________________
dropout_2 (Dropout)          (None, 200)               0         
_________________________________________________________________
dense_2 (Dense)              (None, 100)               20100     
_________________________________________________________________
dropout_3 (Dropout)          (None, 100)               0         
_________________________________________________________________
dense_3 (Dense)              (None, 1)                 101       
=================================================================
Total params: 6,580,001
Trainable params: 6,580,001
Non-trainable params: 0
_________________________________________________________________
None
Train on 2918 samples, validate on 625 samples
Epoch 1/70

  50/2918 [..............................] - ETA: 1:01 - loss: 0.7109 - mean_squared_error: 0.7109
 350/2918 [==>...........................] - ETA: 8s - loss: 0.4066 - mean_squared_error: 0.4066  
…
2019-01-08 22:24:49.387551: I tensorflow/core/common_runtime/gpu/gpu_device.cc:1105] Found device 0 with properties: 
name: Tesla V100-PCIE-16GB major: 7 minor: 0 memoryClockRate(GHz): 1.38
pciBusID: 0000:37:00.0
totalMemory: 15.75GiB freeMemory: 15.34GiB
2019-01-08 22:24:49.387587: I tensorflow/core/common_runtime/gpu/gpu_device.cc:1195] Creating TensorFlow device (/device:GPU:0) -> (device: 0, name: Tesla V100-PCIE-16GB, pci bus id: 0000:37:00.0, compute capability: 7.0)
_________________________________________________________________
Layer (type)                 Output Shape              Param #   
=================================================================
dropout_1 (Dropout)          (None, 32798)             0         
_________________________________________________________________
dense_1 (Dense)              (None, 200)               6559800   
_________________________________________________________________
dropout_2 (Dropout)          (None, 200)               0         
_________________________________________________________________
dense_2 (Dense)              (None, 100)               20100     
_________________________________________________________________
dropout_3 (Dropout)          (None, 100)               0         
_________________________________________________________________
dense_3 (Dense)              (None, 50)                5050      
_________________________________________________________________
dropout_4 (Dropout)          (None, 50)                0         
_________________________________________________________________
dense_4 (Dense)              (None, 1)                 51        
=================================================================
Total params: 6,585,001
Trainable params: 6,585,001
Non-trainable params: 0
_________________________________________________________________
None
Train on 2918 samples, validate on 625 samples
Epoch 1/70

  50/2918 [..............................] - ETA: 1:03 - loss: 0.6377 - mean_squared_error: 0.6377
 350/2918 [==>...........................] - ETA: 8s - loss: 0.5216 - mean_squared_error: 0.5216  
…
2019-01-08 22:25:33.808083: I tensorflow/core/common_runtime/gpu/gpu_device.cc:1105] Found device 0 with properties: 
name: Tesla V100-PCIE-16GB major: 7 minor: 0 memoryClockRate(GHz): 1.38
pciBusID: 0000:37:00.0
totalMemory: 15.75GiB freeMemory: 15.34GiB
2019-01-08 22:25:33.808118: I tensorflow/core/common_runtime/gpu/gpu_device.cc:1195] Creating TensorFlow device (/device:GPU:0) -> (device: 0, name: Tesla V100-PCIE-16GB, pci bus id: 0000:37:00.0, compute capability: 7.0)
_________________________________________________________________
Layer (type)                 Output Shape              Param #   
=================================================================
dropout_1 (Dropout)          (None, 32798)             0         
_________________________________________________________________
dense_1 (Dense)              (None, 200)               6559800   
_________________________________________________________________
dropout_2 (Dropout)          (None, 200)               0         
_________________________________________________________________
dense_2 (Dense)              (None, 100)               20100     
_________________________________________________________________
dropout_3 (Dropout)          (None, 100)               0         
_________________________________________________________________
dense_3 (Dense)              (None, 50)                5050      
_________________________________________________________________
dropout_4 (Dropout)          (None, 50)                0         
_________________________________________________________________
dense_4 (Dense)              (None, 25)                1275      
_________________________________________________________________
dropout_5 (Dropout)          (None, 25)                0         
_________________________________________________________________
dense_5 (Dense)              (None, 1)                 26        
=================================================================
Total params: 6,586,251
Trainable params: 6,586,251
Non-trainable params: 0
_________________________________________________________________
None
Train on 2918 samples, validate on 625 samples
Epoch 1/70

  50/2918 [..............................] - ETA: 1:04 - loss: 1.9134 - mean_squared_error: 1.9134
 350/2918 [==>...........................] - ETA: 8s - loss: 1.3764 - mean_squared_error: 1.3764  
…
2019-01-08 22:27:48.958962: I tensorflow/core/common_runtime/gpu/gpu_device.cc:1105] Found device 0 with properties: 
name: Tesla V100-PCIE-16GB major: 7 minor: 0 memoryClockRate(GHz): 1.38
pciBusID: 0000:37:00.0
totalMemory: 15.75GiB freeMemory: 15.34GiB
2019-01-08 22:27:48.958998: I tensorflow/core/common_runtime/gpu/gpu_device.cc:1195] Creating TensorFlow device (/device:GPU:0) -> (device: 0, name: Tesla V100-PCIE-16GB, pci bus id: 0000:37:00.0, compute capability: 7.0)
_________________________________________________________________
Layer (type)                 Output Shape              Param #   
=================================================================
dropout_1 (Dropout)          (None, 32798)             0         
_________________________________________________________________
dense_1 (Dense)              (None, 300)               9839700   
_________________________________________________________________
dropout_2 (Dropout)          (None, 300)               0         
_________________________________________________________________
dense_2 (Dense)              (None, 150)               45150     
_________________________________________________________________
dropout_3 (Dropout)          (None, 150)               0         
_________________________________________________________________
dense_3 (Dense)              (None, 1)                 151       
=================================================================
Total params: 9,885,001
Trainable params: 9,885,001
Non-trainable params: 0
_________________________________________________________________
None
Train on 2918 samples, validate on 625 samples
Epoch 1/70

  50/2918 [..............................] - ETA: 1:02 - loss: 2.2375 - mean_squared_error: 2.2375
 300/2918 [==>...........................] - ETA: 9s - loss: 1.0176 - mean_squared_error: 1.0176  
…
2019-01-08 22:28:34.863814: I tensorflow/core/common_runtime/gpu/gpu_device.cc:1105] Found device 0 with properties: 
name: Tesla V100-PCIE-16GB major: 7 minor: 0 memoryClockRate(GHz): 1.38
pciBusID: 0000:37:00.0
totalMemory: 15.75GiB freeMemory: 15.34GiB
2019-01-08 22:28:34.863849: I tensorflow/core/common_runtime/gpu/gpu_device.cc:1195] Creating TensorFlow device (/device:GPU:0) -> (device: 0, name: Tesla V100-PCIE-16GB, pci bus id: 0000:37:00.0, compute capability: 7.0)
_________________________________________________________________
Layer (type)                 Output Shape              Param #   
=================================================================
dropout_1 (Dropout)          (None, 32798)             0         
_________________________________________________________________
dense_1 (Dense)              (None, 300)               9839700   
_________________________________________________________________
dropout_2 (Dropout)          (None, 300)               0         
_________________________________________________________________
dense_2 (Dense)              (None, 150)               45150     
_________________________________________________________________
dropout_3 (Dropout)          (None, 150)               0         
_________________________________________________________________
dense_3 (Dense)              (None, 75)                11325     
_________________________________________________________________
dropout_4 (Dropout)          (None, 75)                0         
_________________________________________________________________
dense_4 (Dense)              (None, 1)                 76        
=================================================================
Total params: 9,896,251
Trainable params: 9,896,251
Non-trainable params: 0
_________________________________________________________________
None
Train on 2918 samples, validate on 625 samples
Epoch 1/70

  50/2918 [..............................] - ETA: 1:05 - loss: 2.2405 - mean_squared_error: 2.2405
 300/2918 [==>...........................] - ETA: 10s - loss: 1.2694 - mean_squared_error: 1.2694 
…
2019-01-08 22:29:23.446396: I tensorflow/core/common_runtime/gpu/gpu_device.cc:1105] Found device 0 with properties: 
name: Tesla V100-PCIE-16GB major: 7 minor: 0 memoryClockRate(GHz): 1.38
pciBusID: 0000:37:00.0
totalMemory: 15.75GiB freeMemory: 15.34GiB
2019-01-08 22:29:23.446432: I tensorflow/core/common_runtime/gpu/gpu_device.cc:1195] Creating TensorFlow device (/device:GPU:0) -> (device: 0, name: Tesla V100-PCIE-16GB, pci bus id: 0000:37:00.0, compute capability: 7.0)
_________________________________________________________________
Layer (type)                 Output Shape              Param #   
=================================================================
dropout_1 (Dropout)          (None, 32798)             0         
_________________________________________________________________
dense_1 (Dense)              (None, 300)               9839700   
_________________________________________________________________
dropout_2 (Dropout)          (None, 300)               0         
_________________________________________________________________
dense_2 (Dense)              (None, 150)               45150     
_________________________________________________________________
dropout_3 (Dropout)          (None, 150)               0         
_________________________________________________________________
dense_3 (Dense)              (None, 75)                11325     
_________________________________________________________________
dropout_4 (Dropout)          (None, 75)                0         
_________________________________________________________________
dense_4 (Dense)              (None, 37)                2812      
_________________________________________________________________
dropout_5 (Dropout)          (None, 37)                0         
_________________________________________________________________
dense_5 (Dense)              (None, 1)                 38        
=================================================================
Total params: 9,899,025
Trainable params: 9,899,025
Non-trainable params: 0
_________________________________________________________________
None
Train on 2918 samples, validate on 625 samples
Epoch 1/70

  50/2918 [..............................] - ETA: 1:05 - loss: 1.7457 - mean_squared_error: 1.7457
 300/2918 [==>...........................] - ETA: 10s - loss: 1.3991 - mean_squared_error: 1.3991 
…
