…
2019-01-09 12:04:29.324502: I tensorflow/core/common_runtime/gpu/gpu_device.cc:1105] Found device 0 with properties: 
name: Tesla V100-PCIE-16GB major: 7 minor: 0 memoryClockRate(GHz): 1.38
pciBusID: 0000:37:00.0
totalMemory: 15.75GiB freeMemory: 15.34GiB
2019-01-09 12:04:29.324538: I tensorflow/core/common_runtime/gpu/gpu_device.cc:1195] Creating TensorFlow device (/device:GPU:0) -> (device: 0, name: Tesla V100-PCIE-16GB, pci bus id: 0000:37:00.0, compute capability: 7.0)
_________________________________________________________________
Layer (type)                 Output Shape              Param #   
=================================================================
dropout_1 (Dropout)          (None, 32798)             0         
_________________________________________________________________
dense_1 (Dense)              (None, 250)               8199750   
_________________________________________________________________
dropout_2 (Dropout)          (None, 250)               0         
_________________________________________________________________
dense_2 (Dense)              (None, 125)               31375     
_________________________________________________________________
dropout_3 (Dropout)          (None, 125)               0         
_________________________________________________________________
dense_3 (Dense)              (None, 62)                7812      
_________________________________________________________________
dropout_4 (Dropout)          (None, 62)                0         
_________________________________________________________________
dense_4 (Dense)              (None, 31)                1953      
_________________________________________________________________
dropout_5 (Dropout)          (None, 31)                0         
_________________________________________________________________
dense_5 (Dense)              (None, 1)                 32        
=================================================================
Total params: 8,240,922
Trainable params: 8,240,922
Non-trainable params: 0
_________________________________________________________________
None
Train on 2918 samples, validate on 625 samples
Epoch 1/70

  50/2918 [..............................] - ETA: 4:21 - loss: 2.4382 - mean_squared_error: 2.4382
 250/2918 [=>............................] - ETA: 49s - loss: 1.8909 - mean_squared_error: 1.8909 
…
2019-01-09 12:05:21.697345: I tensorflow/core/common_runtime/gpu/gpu_device.cc:1105] Found device 0 with properties: 
name: Tesla V100-PCIE-16GB major: 7 minor: 0 memoryClockRate(GHz): 1.38
pciBusID: 0000:37:00.0
totalMemory: 15.75GiB freeMemory: 15.34GiB
2019-01-09 12:05:21.697380: I tensorflow/core/common_runtime/gpu/gpu_device.cc:1195] Creating TensorFlow device (/device:GPU:0) -> (device: 0, name: Tesla V100-PCIE-16GB, pci bus id: 0000:37:00.0, compute capability: 7.0)
_________________________________________________________________
Layer (type)                 Output Shape              Param #   
=================================================================
dropout_1 (Dropout)          (None, 32798)             0         
_________________________________________________________________
dense_1 (Dense)              (None, 350)               11479650  
_________________________________________________________________
dropout_2 (Dropout)          (None, 350)               0         
_________________________________________________________________
dense_2 (Dense)              (None, 175)               61425     
_________________________________________________________________
dropout_3 (Dropout)          (None, 175)               0         
_________________________________________________________________
dense_3 (Dense)              (None, 87)                15312     
_________________________________________________________________
dropout_4 (Dropout)          (None, 87)                0         
_________________________________________________________________
dense_4 (Dense)              (None, 43)                3784      
_________________________________________________________________
dropout_5 (Dropout)          (None, 43)                0         
_________________________________________________________________
dense_5 (Dense)              (None, 1)                 44        
=================================================================
Total params: 11,560,215
Trainable params: 11,560,215
Non-trainable params: 0
_________________________________________________________________
None
Train on 2918 samples, validate on 625 samples
Epoch 1/70

  50/2918 [..............................] - ETA: 1:07 - loss: 0.8365 - mean_squared_error: 0.8365
 300/2918 [==>...........................] - ETA: 10s - loss: 0.4866 - mean_squared_error: 0.4866 
…
2019-01-09 12:06:12.982332: I tensorflow/core/common_runtime/gpu/gpu_device.cc:1105] Found device 0 with properties: 
name: Tesla V100-PCIE-16GB major: 7 minor: 0 memoryClockRate(GHz): 1.38
pciBusID: 0000:37:00.0
totalMemory: 15.75GiB freeMemory: 15.34GiB
2019-01-09 12:06:12.982370: I tensorflow/core/common_runtime/gpu/gpu_device.cc:1195] Creating TensorFlow device (/device:GPU:0) -> (device: 0, name: Tesla V100-PCIE-16GB, pci bus id: 0000:37:00.0, compute capability: 7.0)
_________________________________________________________________
Layer (type)                 Output Shape              Param #   
=================================================================
dropout_1 (Dropout)          (None, 32798)             0         
_________________________________________________________________
dense_1 (Dense)              (None, 400)               13119600  
_________________________________________________________________
dropout_2 (Dropout)          (None, 400)               0         
_________________________________________________________________
dense_2 (Dense)              (None, 200)               80200     
_________________________________________________________________
dropout_3 (Dropout)          (None, 200)               0         
_________________________________________________________________
dense_3 (Dense)              (None, 100)               20100     
_________________________________________________________________
dropout_4 (Dropout)          (None, 100)               0         
_________________________________________________________________
dense_4 (Dense)              (None, 50)                5050      
_________________________________________________________________
dropout_5 (Dropout)          (None, 50)                0         
_________________________________________________________________
dense_5 (Dense)              (None, 1)                 51        
=================================================================
Total params: 13,225,001
Trainable params: 13,225,001
Non-trainable params: 0
_________________________________________________________________
None
Train on 2918 samples, validate on 625 samples
Epoch 1/70

  50/2918 [..............................] - ETA: 1:07 - loss: 2.2961 - mean_squared_error: 2.2961
 300/2918 [==>...........................] - ETA: 10s - loss: 1.3617 - mean_squared_error: 1.3617 
…
2019-01-09 12:07:05.685923: I tensorflow/core/common_runtime/gpu/gpu_device.cc:1105] Found device 0 with properties: 
name: Tesla V100-PCIE-16GB major: 7 minor: 0 memoryClockRate(GHz): 1.38
pciBusID: 0000:37:00.0
totalMemory: 15.75GiB freeMemory: 15.34GiB
2019-01-09 12:07:05.685958: I tensorflow/core/common_runtime/gpu/gpu_device.cc:1195] Creating TensorFlow device (/device:GPU:0) -> (device: 0, name: Tesla V100-PCIE-16GB, pci bus id: 0000:37:00.0, compute capability: 7.0)
_________________________________________________________________
Layer (type)                 Output Shape              Param #   
=================================================================
dropout_1 (Dropout)          (None, 32798)             0         
_________________________________________________________________
dense_1 (Dense)              (None, 450)               14759550  
_________________________________________________________________
dropout_2 (Dropout)          (None, 450)               0         
_________________________________________________________________
dense_2 (Dense)              (None, 225)               101475    
_________________________________________________________________
dropout_3 (Dropout)          (None, 225)               0         
_________________________________________________________________
dense_3 (Dense)              (None, 112)               25312     
_________________________________________________________________
dropout_4 (Dropout)          (None, 112)               0         
_________________________________________________________________
dense_4 (Dense)              (None, 56)                6328      
_________________________________________________________________
dropout_5 (Dropout)          (None, 56)                0         
_________________________________________________________________
dense_5 (Dense)              (None, 1)                 57        
=================================================================
Total params: 14,892,722
Trainable params: 14,892,722
Non-trainable params: 0
_________________________________________________________________
None
Train on 2918 samples, validate on 625 samples
Epoch 1/70

  50/2918 [..............................] - ETA: 1:07 - loss: 3.1251 - mean_squared_error: 3.1251
 300/2918 [==>...........................] - ETA: 10s - loss: 1.9696 - mean_squared_error: 1.9696 
…
2019-01-09 12:08:00.070343: I tensorflow/core/common_runtime/gpu/gpu_device.cc:1105] Found device 0 with properties: 
name: Tesla V100-PCIE-16GB major: 7 minor: 0 memoryClockRate(GHz): 1.38
pciBusID: 0000:37:00.0
totalMemory: 15.75GiB freeMemory: 15.34GiB
2019-01-09 12:08:00.070380: I tensorflow/core/common_runtime/gpu/gpu_device.cc:1195] Creating TensorFlow device (/device:GPU:0) -> (device: 0, name: Tesla V100-PCIE-16GB, pci bus id: 0000:37:00.0, compute capability: 7.0)
_________________________________________________________________
Layer (type)                 Output Shape              Param #   
=================================================================
dropout_1 (Dropout)          (None, 32798)             0         
_________________________________________________________________
dense_1 (Dense)              (None, 550)               18039450  
_________________________________________________________________
dropout_2 (Dropout)          (None, 550)               0         
_________________________________________________________________
dense_2 (Dense)              (None, 275)               151525    
_________________________________________________________________
dropout_3 (Dropout)          (None, 275)               0         
_________________________________________________________________
dense_3 (Dense)              (None, 137)               37812     
_________________________________________________________________
dropout_4 (Dropout)          (None, 137)               0         
_________________________________________________________________
dense_4 (Dense)              (None, 68)                9384      
_________________________________________________________________
dropout_5 (Dropout)          (None, 68)                0         
_________________________________________________________________
dense_5 (Dense)              (None, 1)                 69        
=================================================================
Total params: 18,238,240
Trainable params: 18,238,240
Non-trainable params: 0
_________________________________________________________________
None
Train on 2918 samples, validate on 625 samples
Epoch 1/70

  50/2918 [..............................] - ETA: 1:10 - loss: 0.6045 - mean_squared_error: 0.6045
 250/2918 [=>............................] - ETA: 13s - loss: 0.5434 - mean_squared_error: 0.5434 
…
